…
ies with\nthe proposed approach, too many parameters with sub-\ntle differences. We would like to dig deeper to under-\nstand which parameters are most signiﬁcant for computing\nmelodic similarity.\nPerception studies show that changes in relative scale\nor relative duration do not have a major impact on melodic\nsimilarity [24]. The similarity measure should be invariant\nto music transformations, such as transposition in pitch and\ntempo changes [16,23]. The proposed generative RNN can\nmodel the input pitch sequence, but cannot deal with the\nNo. Pair V ote No. Pair V ote No. Pair V ote\n1 (79, 80) 23 11 (10, 63) 13 21 (10, 52) 11\n2 (47, 68) 19 12 (47, 76) 13 22 (7, 20) 10\n3 (65, 78) 18 13 (51, 63) 13 23 (7, 45) 10\n4 (6, 16) 17 14 (51, 77) 13 24 (29, 60) 10\n5 (12, 47) 16 15 (64, 66) 13 25 (47, 67) 10\n6 (12, 63) 16 16 (7, 49) 12 26 (70, 71) 10\n7 (15, 16) 16 17 (19, 20) 12 27 (75, 79) 10\n8 (67, 75) 16 18 (41, 43) 12 28 (75, 80) 10\n9 (54, 63) 15 19 (42, 44) 12\n10 (72, 75) 15 20 (68, 72) 12\nTable 6 : A list of pairs of songs with similarity votes above\n9 votes out of 27.\n-40 -30 -20 -10 0 10 20 30 40 50-60-40-20020406080\n123\n45\n67\n8\n910\n1112\n1314\n15161718\n192021\n22\n232425\n26\n2728\n29 30\n313233\n34\n35\n363738\n39\n404142\n434445\n4647\n484950515253\n5455\n56\n5758\n5960\n6162\n63\n646566\n676869\n70 71\n72\n737475\n7677\n7879\n80(a) Visualisation based on RNN parame
…
